Lab2/vgg19_quant_param_new.npz (npz, 1076 bytes, 2 tensors)

filter f8 [38]
0	0xc01c000000000000	-7.0
1	0x3ff862bfe0000000	1.5241087675094604
2	0xc022000000000000	-9.0
3	0x3ff035f100000000	1.013169288635254
4	0xc020000000000000	-8.0
5	0x3ff2d18740000000	1.176154375076294
6	0xc022000000000000	-9.0
7	0x3ff04e5480000000	1.0191235542297363
8	0xc01c000000000000	-7.0
9	0x3ffab37d80000000	1.668820858001709
10	0xc01c000000000000	-7.0
11	0x3ffcc46f00000000	1.797957420349121
12	0xc022000000000000	-9.0
13	0x3ff23b37e0000000	1.1394575834274292
14	0xc022000000000000	-9.0
15	0x3ff0b05360000000	1.0430482625961304
16	0xc020000000000000	-8.0
17	0x3fff0ee060000000	1.9411319494247437
18	0xc020000000000000	-8.0
19	0x3ff45d8f60000000	1.2728418111801147
20	0xc020000000000000	-8.0
21	0x3ffac9f120000000	1.6743022203445435
22	0xc022000000000000	-9.0
23	0x3ff1dc4aa0000000	1.1162821054458618
24	0xc020000000000000	-8.0
25	0x3ff76c0c00000000	1.4638786315917969
26	0xc020000000000000	-8.0
27	0x3ff675c340000000	1.4037506580352783
28	0xc020000000000000	-8.0
29	0x3ffe311a20000000	1.8869878053665161
30	0xc022000000000000	-9.0
31	0x3ff72c86e0000000	1.4483708143234253
32	0xc028000000000000	-12.0
33	0x3ff391eb00000000	1.2231245040893555
34	0xc026000000000000	-11.0
35	0x3ff83121a0000000	1.5119949579238892
36	0xc026000000000000	-11.0
37	0x3ff20c3a20000000	1.1279851198196411

input f8 [38]
0	0x3ff0000000000000	1.0
1	0x3ffae72d80000000	1.6814398765563965
2	0x4008000000000000	3.0
3	0x3ff76a0b00000000	1.4633893966674805
4	0x4014000000000000	5.0
5	0x3ff722bb00000000	1.445979118347168
6	0x4018000000000000	6.0
7	0x3ffed666e0000000	1.9273442029953003
8	0x4018000000000000	6.0
9	0x3ff525cfe0000000	1.321731448173523
10	0x401c000000000000	7.0
11	0x3fff8bc240000000	1.971620798110962
12	0x4018000000000000	6.0
13	0x3ff0374c40000000	1.013500452041626
14	0x401c000000000000	7.0
15	0x3ffd4ca380000000	1.8312106132507324
16	0x401c000000000000	7.0
17	0x3ff09da4a0000000	1.0384870767593384
18	0x4020000000000000	8.0
19	0x3ff84edba0000000	1.5192524194717407
20	0x4020000000000000	8.0
21	0x3ff8e85980000000	1.5567259788513184
22	0x401c000000000000	7.0
23	0x3ff620b500000000	1.3829851150512695
24	0x4018000000000000	6.0
25	0x3ff1449de0000000	1.0792521238327026
26	0x4014000000000000	5.0
27	0x3ff027b2e0000000	1.0096920728683472
28	0x4014000000000000	5.0
29	0x3ff320b280000000	1.1954827308654785
30	0x4010000000000000	4.0
31	0x3ffff59980000000	1.9974608421325684
32	0x4000000000000000	2.0
33	0x3ff24d5000000000	1.1438751220703125
34	0x0000000000000000	0.0
35	0x3ffdd79180000000	1.865128993988037
36	0xc000000000000000	-2.0
37	0x3ffc8ddfe0000000	1.7846373319625854
